denoiser_epoch4.pth (torch, 811559 bytes, 82 tensors)

conv_list.0.weight f4 [64, 64, 3]
00000000: 481a 70bd 0f92 3ebb 65e8 373d e63b 86bd
00000010: 4ca5 85bd 779c 9f3c 3240 01bd e5d0 6a3d
00000020: 8a0a 983d 4350 23bd bede 67bd cf88 01bc
00000030: 83dc 843d c5cd 103b ee02 203c af46 c9bc
00000040: 4f40 dabc f333 83bc 05df 5d3d 01e7 4cbd
00000050: f955 903d 08b9 c9bb c110 50bc b618 423d
00000060: 88da 923d 3011 b8bc 5f5a 43bc c6ee e93c
00000070: d4c2 5fbc 7310 3ebd 9796 83bd 6a52 10bd
00000080: 65c5 873c 2495 453d b7a2 923d f072 01bd
00000090: ae1a 4abc b3ad ecbc a7fc 0e3d b616 51bd
000000a0: e2fa 863d 90bf 88bd 4001 2a3d 210c 27bc
000000b0: d7b5 243d e76e 363d 4ba5 863d de9f c0bc
000000c0: 8b5b 34bd 0ed9 5f3d 6c71 c33c 61c3 803c
000000d0: 6cda 0fbd 5568 823d 1d0b d63c 401f 6a3b
000000e0: 2121 1fbd af02 b93c 75eb 58bd ab09 993c
000000f0: 1b92 59bd c91f 1bbc 1fe5 36bc 7291 37bc
00000100: 68c0 6fbd a580 7ebd d591 b1bc aaf1 463c
00000110: 8303 483d 34bf 903d 84c0 a23c 1a37 7fbd
00000120: 6676 8cbd 800c d7bc f958 13bd 19b7 fd3b
00000130: dfa1 c1bc 9fd9 3bbd ab2e 82bd 62c5 7c3c
00000140: 7267 663d ba48 1bbd 5929 91bd dd5a 7d3d
00000150: ca46 5ebd d3c0 053d 4fd0 093c 7571 543d
00000160: 3041 06bd 785d 053d 7128 1e3d 7469 1e3d
00000170: 77e6 66bd 5801 a43c b7b3 2b3d 7796 66bd
00000180: 0438 0b3d 707a 973c 5f80 7bbc 6531 a13a
00000190: 9fed c43c 04f8 74bd 0b62 6dbc f6b3 3fbd
000001a0: 1498 9fbc 855c 0abd 9db2 aabc 63e6 833d
000001b0: 883a 653d 0767 533d ad25 643d fba4 44bd
000001c0: 6fa7 7fbd 381f 463a 2b9e 6bbd e54d 823d
000001d0: 23fb 463d fec6 a63c 4b8b bf3c b2ee 00bd
000001e0: bdd0 0e38 43c3 c63b 04fc 9e3c a700 6d3c
000001f0: ea0c 883d f0d8 03bd 762c 1c3d 1eb2 fc3b
00000200: 9073 77bd b398 0e3d a938 543d 4a7c 893d
00000210: ab90 683c 40fc 67bc bf4b fcbc 9cc3 3a3d
00000220: c15d 70bd a6c0 50bd f205 8a3d f394 b9ba
00000230: 1c71 1b3d b3d0 373c d686 b1bc 161e 2d3c
00000240: 05fa 3a3d df0b 033a 9f86 e1bb 64ea abbc
00000250: 1b42 90bd 39ac 953c b597 adbc ef99 6dbd
00000260: 5b59 733d 955e 1e3d f746 9c3b 1e05 09bd
00000270: 2e09 3cbc 5138 3f3d 7e26 9bbc bcd7 143d
00000280: df44 91ba 585d 803d 31a4 87bd 202d b93c
00000290: 6ea6 8ebd 5da5 883d 3f08 f13c 1764 623d
000002a0: 0ea3 543c e2f1 873d 5514 813d d743 97bb
000002b0: 0e25 823d 6835 cb3c f84e 59bd b6d2 1f3d
000002c0: e2b9 ac3c 89cc 1c3d 0aba 813c 6156 643b
000002d0: fc67 1ebd fc01 f73c 8acc 81bc 3c30 ef3c
000002e0: 3dca 973d 6378 893d 6690 873c 99d3 4dbb
000002f0: f0af 25bc 26d9 793d d92b 213d 2f91 4c3a
00000300: 52c0 8f3d 3ff4 423c 6c3d 933d 2e35 42bd
00000310: 2c56 ffbb 3693 933d d2ef 963d a0ff be3c
00000320: 72a8 73bc 7c0a 08bd 162c 1d3c ce04 483c
00000330: daf8 71bd 2c12 103d b8a0 433d ba99 803d
00000340: 58c2 6f3a ecbe 83bd 6e71 36bc a72b a03b
00000350: e30a a3bc ccd0 6d3d 05dd e2bc 7f03 09bb
00000360: dd65 57bd caec 8d3b 07d9 d7bc fa3f 3cbd
00000370: 8446 593d 3f94 e83c 9692 62bd 80b0 88bd
00000380: 8060 373d 2955 843c af02 323c 1308 253d
00000390: a138 033c 7671 3a3d 4a51 c93c f30c 513d
000003a0: a3d8 3ebd 576c 6bbd 4a76 2fbd 06df 403d
000003b0: afbf b13b 1605 923d 4fd3 613d a332 603c
000003c0: 229f 9f3c 2396 2d3d fba9 ba3b 76ba 283d
000003d0: a1bd a53c 8a40 93bd 1c47 f23c 8c15 3a3d
000003e0: a189 9fbc 9bd8 ce3c 0ece 05bd f96e cd3c
000003f0: eec1 7fbd 9223 9e3c e1eb 3bbc 70f9 253d
-0.058618814 -0.0029078757 0.044899363 -0.065543935 -0.065256685 0.019483788 -0.031555362 0.057328124
0.07423885 -0.039871465 -0.056608908 -0.007906153 0.06487372 0.0022095304 0.0097663235 -0.024569837
-0.026641993 -0.016015982 0.054167766 -0.05002499 0.07047648 -0.0061560906 -0.012699307 0.047386847
0.07170588 -0.022469133 -0.011923402 0.028556239 -0.0136572905 -0.046402406 -0.06425207 -0.035234846
0.016573617 0.048237935 0.07159942 -0.031603754 -0.0123354625 -0.02889142 0.034908917 -0.05104705
0.06590821 -0.06677163 0.0415051 -0.010195763 0.04021248 0.04453936 0.06574496 -0.02351373
-0.044032615 0.05465036 0.023857795 0.015718164 -0.035120413 0.06367556 0.026128346 0.0035724193
-0.038849954 0.022584287 -0.052958924 0.018681368 -0.053117853 -0.009468027 -0.011163025 -0.01120411
-0.058533102 -0.062134404 -0.021675983 0.012142578 0.048831474 0.07067719 0.01986719 -0.06230841
-0.0685852 -0.026251078 -0.035973523 0.007742774 -0.023636756 -0.045861837 -0.063565575 0.015427919
0.056250997 -0.037911154 -0.070879646 0.061854232 -0.05426673 0.032654595 0.008411481 0.051866014
-0.03277701 0.032559842 0.038612787 0.038674787 -0.056372132 0.020020172 0.041919436 -0.05629584
0.033988968 0.018491 -0.01535043 0.0012298046 0.024039088 -0.05980684 -0.014488707 -0.046802483
-0.019481696 -0.03377964 -0.020837123 0.06440427 0.055964023 0.051611926 0.055699993 -0.0480089
-0.062415536 0.00075577525 -0.057523888 0.063625135 0.048579346 0.020358559 0.02338185 -0.031477638
3.404984e-05 0.0060657575 0.01940728 0.014465488 0.06643088 -0.03218931 0.03812834 0.007711663
-0.060412943 0.034813594 0.051811848 0.067131594 0.014194648 -0.014159262 -0.030797837 0.045596704
-0.05868316 -0.050964974 0.06739415 -0.001415877 0.037949666 0.011219191 -0.02167074 0.010566255
0.045648593 0.00049990223 -0.006882503 -0.02098579 -0.070438586 0.018270599 -0.021190504 -0.05800813
0.059411388 0.03866442 0.004769202 -0.033452146 -0.011476798 0.046684567 -0.018939253 0.036338553
-0.0011083147 0.06267804 -0.06623114 0.022604525 -0.06965338 0.066721655 0.029422877 0.055271234
0.012978328 0.06637932 0.06302706 -0.0046162414 0.06354724 0.02480574 -0.053053826 0.03901931
0.02108473 0.038280997 0.01583578 0.0034841525 -0.038673386 0.030152313 -0.015844602 0.029197805
0.07411621 0.06712415 0.016548347 -0.003140664 -0.010112748 0.060998105 0.039348457 0.00078036165
0.07019104 0.011899053 0.0718945 -0.047413997 -0.007792255 0.07205813 0.07369961 0.02331525
-0.014871703 -0.033213124 0.00959303 0.012208177 -0.059075214 0.03517358 0.047760695 0.06279321
0.0009146086 -0.064329 -0.011135442 0.0048880163 -0.019902652 0.058060452 -0.027693281 -0.0020906625
-0.05258738 0.004331206 -0.026348604 -0.04595945 0.053045765 0.028391002 -0.055315576 -0.0667429
0.044769764 0.016153889 0.010864898 0.040290903 0.008009107 0.04551836 0.024574894 0.05103774
-0.04659332 -0.057476368 -0.04283742 0.04708769 0.005424462 0.07129876 0.05513316 0.013683948
0.01948506 0.04237951 0.005696533 0.041193448 0.020232024 -0.07190044 0.029574923 0.045430705
-0.019474806 0.02524977 -0.032667212 0.02507733 -0.062440805 0.01930407 -0.011469812 0.040521085

conv_list.0.bias f4 [64]
00000000: b455 41bd 748a 7b3c 6559 0fbd 86cd fc3c
00000010: 7053 883c bb54 cc3c 9191 f63c 881f 1cbd
00000020: c3d2 b13c 875f 3b3c 9aa3 4abd 062e 2c3d
00000030: ac9e 1d3d 8cd2 4b3d a34a c2bc 2373 68bd
00000040: 8b07 5d3b 7d06 6a3d 929b 923d 6776 47bc
00000050: 6782 f8b9 7c38 13bd 6df9 4e3d 8f61 6dbd
00000060: bc97 853d 7edd 50bd 8029 06bd 061e 46bd
00000070: 2ec4 8ebd 2bb1 29bd f6f1 863b cf33 d1bc
00000080: a241 d7bc c211 1bbd 800b 803d fb4a 8c3d
00000090: e9ac ae3b 87db 983c 878f 2f39 fa2f 2cbd
000000a0: d811 68bd 054f 343d b601 5ebb 80b4 78bd
000000b0: 7c84 61bd 1d55 8dbd 26d1 1abc e812 5f3b
000000c0: d5e5 833d 455f f23c 5305 b13c 0a09 053d
000000d0: 297e be3c 2d24 90bc df92 58bd 9214 143d
000000e0: 83e4 f73a 9776 92bd 3b96 79bd f17e b3bc
000000f0: 8f6b 743d 5184 86bd 6b3d 923d 63d8 173b
-0.047200873 0.015352834 -0.034997363 0.03085972 0.016641349 0.024942746 0.030098708 -0.038116008
0.021706944 0.01143635 -0.04947243 0.04203608 0.0384814 0.04976134 -0.02371723 -0.056750428
0.003372642 0.057135094 0.07158579 -0.012174225 -0.00047399403 -0.03594254 0.05053084 -0.057954367
0.06523082 -0.05099248 -0.03275442 -0.048368476 -0.06971012 -0.041428726 0.0041181995 -0.0255374
-0.026276413 -0.037858732 0.062521935 0.06850239 0.005330671 0.018659366 0.00016742769 -0.04203794
-0.056657642 0.04402067 -0.0033875532 -0.060719013 -0.055057988 -0.06901 -0.009449279 0.0034038369
0.06440321 0.029586444 0.021608984 0.032479323 0.023253517 -0.017595375 -0.052874442 0.03615243
0.0018912706 -0.071515255 -0.060934287 -0.021911116 0.05967289 -0.06568206 0.07140621 0.0023169748

conv_list.1.weight f4 [64]
00000000: 9375 7e3f 691c 7f3f b2c2 803f c8ed 7f3f
00000010: 8f91 803f b119 7f3f e22c 803f 02ef 803f
00000020: 80c8 7d3f eb66 7e3f 45dc 7f3f be16 803f
00000030: bb91 7f3f 3c4b 813f 8f0b 803f f433 7f3f
00000040: 2e2b 803f cfcc 7e3f da89 7f3f 914b 803f
00000050: bb73 803f 66b1 7e3f 84de 7f3f 7256 803f
00000060: 26ce 7f3f 0c27 803f 3535 803f 162b 803f
00000070: 0af7 7e3f c233 7f3f ff64 803f 700e 7f3f
00000080: 07ec 7f3f 27d9 7e3f 78e7 7e3f 8bc4 7f3f
00000090: 2113 803f 3511 803f 101c 803f 40e4 803f
000000a0: 5758 803f a420 803f ea52 7f3f 55cd 7f3f
000000b0: 2ecc 7f3f 3fa5 7e3f bf0d 803f f26e 7f3f
000000c0: 8d08 7f3f de0a 7f3f d5b2 7f3f 1ea7 803f
000000d0: 5817 803f 5ea8 803f db1a 803f f190 7f3f
000000e0: 7512 803f ee13 7f3f 3e3e 803f f53a 803f
000000f0: 026f 7e3f 2252 7f3f 1525 803f 6be5 7f3f
0.99398154 0.99652725 1.0059416 0.999722 1.0044421 0.99648577 1.0013697 1.0072939
0.99134064 0.9937579 0.9994548 1.000694 0.9983174 1.0101085 1.0003527 0.9968865
1.0013177 0.99531263 0.9981972 1.0023061 1.0035318 0.9948944 0.99948907 1.0026381
0.9992393 1.0011916 1.0016237 1.0013149 0.995957 0.9968835 1.0030822 0.99631405
0.99969524 0.995501 0.99571943 0.99909276 1.0005838 1.0005251 1.0008564 1.0069656
1.0026959 1.0009961 0.9973589 0.99922687 0.9992093 0.99470896 1.0004195 0.99778664
0.9962242 0.99625957 0.9988225 1.0051 1.0007124 1.0051382 1.0008196 0.9983054
1.0005633 0.99639785 1.0018995 1.0017992 0.99388134 0.997347 1.0011317 0.9995944

conv_list.1.bias f4 [64]
00000000: fc25 e2bb 5663 c1bb 0a70 503b 8caa dd3a
00000010: 41aa e03b f716 1cba f511 0f3c 321a fcbb
00000020: 9fee 55bb e9dd a7bb 55da cdbb ff2d 0fbb
00000030: 6e4b a5b9 896a 313c f50b 073b 77e6 f839
00000040: 3f90 6e3b 1bd4 09bc 8b10 dd39 c6e8 963a
00000050: f0e4 5f3b 502a 63b9 8fb6 d23a 5681 e2ba
00000060: 744f 39bb b8d0 a73b b1e4 6d3b 12d2 f4ba
00000070: ad47 40ba 4543 aebb bf8d 6b3b 3b40 adbb
00000080: f0ab 0a3a 5496 feba ed03 0cbb 97ce c7ba
00000090: f109 e7bb cba6 3e3c 6b91 313b a1e7 95ba
000000a0: dd4e 7c3b 63f7 c738 d8e2 dbb9 a816 abb7
000000b0: 39fb d3bb 6824 61bb b89b 243b 02a1 b83a
000000c0: ed8f a2ba ab73 fcbb 371b 0a3b 0fd5 173b
000000d0: 0ac4 833a 45ed 9f3b d0c6 c43b c4bc 5dbb
000000e0: cda4 e2ba 1ae3 9d38 3755 a53a a8e7 a1b9
000000f0: 359b afbb 15e8 683b 288b 743b 6e3a 73bb
-0.0069015007 -0.0059017343 0.0031805062 0.0016911789 0.0068562333 -0.000595435 0.008732309 -0.0076935524
-0.003264345 -0.0051228893 -0.0062821307 -0.0021847484 -0.00031527452 0.010828623 0.0020606492 0.00047473956
0.0036401895 -0.008412386 0.0004216473 0.0011513464 0.0034163557 -0.0002166417 0.0016076135 -0.0017280977
-0.0028276118 0.0051213168 0.003629964 -0.0018678328 -0.0007334899 -0.0053180777 0.0035942642 -0.005287198
0.0005289903 -0.0019423463 -0.0021364645 -0.0015244064 -0.0070507457 0.011636446 0.0027094733 -0.0011436829
0.0038499155 9.535139e-05 -0.00041939947 -2.0395339e-05 -0.006469157 -0.0034353975 0.002511723 0.001408607
-0.0012402512 -0.0077042184 0.002107335 0.0023167764 0.0010052931 0.0048805797 0.0060051456 -0.0033834437
-0.0017291546 7.528644e-05 0.0012613897 -0.0003088091 -0.0053590783 0.0035538722 0.003731439 -0.0037113684

conv_list.1.running_mean f4 [64]
00000000: 826d f93d a06a 013e 45c9 e2bd 2820 96bd
00000010: 97cf 313e 5a80 033d 8294 4e3d 9aa9 6ebd
00000020: 09a2 b73d bc9d 29be 14fc 81bd 9819 0c3e
00000030: a57d c63e 69fc c83d 3d13 79be 436f 57bd
00000040: 321b 2fbe f864 e23d 9d79 2a3e d645 4a3d
00000050: 82fd dfbd 8cab 8bbd 7e3c f5bd f71f e73d
00000060: 7d5d 903d 4723 733d b54d 4abe dbec 94bd
00000070: 979f cc3d 385a 67be f6cf 8abe a7fa 86bc
00000080: 53af 0cbe 3d79 57be c37e ad3b ee52 4abe
00000090: 73fa 0cbe f23c 693e 3489 77be 39e3 453d
000000a0: 872c 49bc 2cc7 863e 82e7 a2bb 8f27 003e
000000b0: f135 b2bd dd30 a3bc ebdb 80be d008 d63d
000000c0: 6045 c03d 8c8e c8bd c737 13bc 883f 54be
000000d0: adba 1cbe 6657 b6bd d532 843d bede 733e
000000e0: 6869 05be 33f9 7bba 6218 1d3c 1a96 86be
000000f0: 7902 8b3e 49a2 163d 30f0 cabd 0306 aebb
0.1217909 0.1263833 -0.11073545 -0.07330352 0.17364345 0.032104827 0.050434597 -0.058267213
0.08966453 -0.16564077 -0.06346908 0.13681638 0.38767734 0.098137684 -0.24323745 -0.05259634
-0.17100218 0.110544145 0.16647954 0.049383007 -0.10937025 -0.06819829 -0.119744286 0.11285394
0.070490815 0.059359815 -0.19756205 -0.07271739 0.09991377 -0.2259301 -0.27111787 -0.016476942
-0.13738756 -0.21042342 0.005294652 -0.19758198 -0.13767414 0.22777155 -0.24173433 0.0483124
-0.012278683 0.2632383 -0.0049714455 0.1251509 -0.08701695 -0.01992076 -0.25167784 0.104508996
0.09388232 -0.09792814 -0.008985466 -0.2072736 -0.15305586 -0.08903389 0.06455008 0.23815438
-0.1302849 -0.0009612024 0.009588333 -0.26286393 0.27150324 0.03677586 -0.099090934 -0.0053107752

conv_list.1.running_var f4 [64]
00000000: 907c a13b 4981 413b d2a5 cd3b a6d9 ec3b
00000010: 1694 013c a9a9 513b ac33 033b b9c6 f13b
00000020: 6242 203b 21bf 8b3b 0156 443b 1cdd 0d3b
00000030: f5e2 4e3c 8f76 5d3b 9bc3 f73b a8be 4b3b
00000040: caa9 a73b 840d 4f3b b541 073b 4fb1 f13b
00000050: d700 443b 9d24 d63b e8df d73b 0047 103c
00000060: 14f9 8c3b 2030 4d3b 75a1 cf3b a3d9 653b
00000070: da06 673b a5d8 603c 6023 0e3c 1ea8 173b
00000080: 98de 113b 6045 9e3b 3608 253b 3850 1d3c
00000090: 9d18 ac3b aaef e43b 1585 d33b d934 3f3b
000000a0: 4978 eb3a 3e26 933b 8923 9e3b 96ef a83b
000000b0: 1d7c 713b 0c76 493b 5cdf 0d3c b339 963b
000000c0: db56 543b cba1 a23b 9a04 563b 281d 1f3c
000000d0: f408 da3b 0a78 2e3b 7d56 3b3b 1444 043c
000000e0: f73a 0d3c 457a 033b f596 0f3b dfe8 0d3c
000000f0: afec c53b 69bc 913b 4509 a83b 783d df3a
0.004928179 0.0029526523 0.006275871 0.007228094 0.007908842 0.0031991994 0.0020019813 0.007378426
0.002445363 0.0042647277 0.002995849 0.0021646684 0.012627353 0.003379259 0.00756116 0.0031088982
0.005116676 0.003159375 0.002063853 0.007375873 0.0029907727 0.0065351264 0.006587971 0.00880599
0.0043021534 0.0031309202 0.006336386 0.0035072349 0.0035251887 0.013723527 0.008675426 0.0023140977
0.002225792 0.0048300475 0.0025181896 0.009601645 0.0052519576 0.006986578 0.0064550736 0.0029175787
0.0017964925 0.004490643 0.0048260135 0.005155514 0.003684766 0.0030740527 0.00865921 0.004584515
0.0032400403 0.004963135 0.0032656551 0.009711541 0.0066538993 0.0026621842 0.0028585487 0.008072872
0.008620015 0.0020061892 0.0021910046 0.008661478 0.006040178 0.004447509 0.005128058 0.0017031869

conv_list.3.weight f4 [64, 64, 3]
00000000: cc8c 873b 3085 81bd 73df 823d 2628 0d3d
00000010: 1977 623d 5537 42bb ed8d 9abc dd17 da3c
00000020: 330b 913d 8667 bcbc 2216 97bd fa6b 883d
00000030: 4055 643d 8a02 43bd 0316 e9bc 2c3e 8b3d
00000040: 699d bd3c 74c9 7bbc 46b1 55bd da18 283c
00000050: 0335 6c3d 03f5 0abd 594d 03bd e59d 5f3d
00000060: 3b48 20bd 0835 8e3d 3b75 893b e247 0dbd
00000070: eae3 72bd 3f78 933b 0778 9fbb d8e6 4fbc
00000080: beb8 d03c b870 8c3d 2323 2dbc 700c 29bb
00000090: b690 07bb ce1d adbb 58ce a5bc 4358 77bd
000000a0: d5b0 3bbc 345b 10bd 3d52 953c 34c3 273d
000000b0: 96c4 a8bc f16c 25bd 48be b83c 54e0 033d
000000c0: 5238 6c3c fc1b 363c 8423 08bd c689 7a3d
000000d0: dc40 a7bc 9a6d 1cbd de47 7e3d c2d6 2e3d
000000e0: 8adc f83c 6109 833d 8f58 3a3d 7128 d23c
000000f0: 2adb 93bd b159 cb3c 6768 01bd 9363 cf3c
00000100: 2c5f a23c 6361 663d 8319 1dbd 464c 973c
00000110: 1d91 093d 823b 823d 4d9c 163d d17e 72ba
00000120: e742 1f3c 964f 99bb f726 e8bb 5b43 09bd
00000130: 632a f7ba 5933 e5ba 3b82 353d ab99 2ebd
00000140: 52dd 4dbd eafc 89bd cf49 53bd 4d4f f0bc
00000150: 0357 1dbd 4d61 4fbd a395 83bd 1986 8d3c
00000160: a077 7ebc 86ff e5bc 2bff 1abd 39e0 46bd
00000170: 2d57 f53c aa0f 95bd c11b 2cbd bfc4 bb3c
00000180: 2bff 73bd af7a e83a acf7 483c f602 453d
00000190: ce9c 793d 63f8 ab3b c864 6c3d 4020 393d
000001a0: 0028 893c 7c91 153d ca2d c9bc 07a2 d8bc
000001b0: cf99 6b3d 5834 86bd 34f3 563c 58b5 97bb
000001c0: 582c d53b 3d34 2ebd e4da 9e3c 353c 263d
000001d0: 33ec dc3c 5ee3 743c 6f26 3d3d b831 83bd
000001e0: 6fba b93c f1a9 7c3c 08bf 27bc 75cf 213b
000001f0: a4fb 8e3d 4ea6 4bbd 3057 b6bc fe66 533d
00000200: 17c3 9bbc 3b09 943d 1355 f33c ed06 a0bc
00000210: eda4 963d ac6a 5d3c 7d7c e5bc 1ec2 62bb
00000220: aea7 2b3d 3b72 40bd ed5a 79bc 8676 7cbc
00000230: 8e81 843d 0f27 083c 242e 86bd ec67 8cbd
00000240: 38dc 40bd 3d7c 8ebc 3917 6a3c eec7 373d
00000250: 482f fbbc 604b 66bd 40a5 4dbd f460 c6bc
00000260: d350 8fbd f6b7 04bd 0a5f 7ebb e1fb 5c3c
00000270: 8872 d5bc a92a 983c aa6f 7ebc 833e 593d
00000280: 66d1 87bd 27ff 48bd 7485 543d 722b 06bd
00000290: e7e6 a5bc b8a2 cfbc 0ade 403d ab3b fa3c
000002a0: 55e3 24bd 0d30 033d a5c9 23bb 1df4 4f3b
000002b0: e36d 83bb 8ef5 4bbd 4763 693d 904d 583d
000002c0: cccc d53c 75dc e4bc 6ad3 45bd 2899 85bd
000002d0: 8918 b4bc ae06 12bc 5bba 29bd 3e2f 7abd
000002e0: e529 233d 4faa 2d3d 4320 1a3b 9d62 5f3d
000002f0: fd6f bfbb c461 85bd c2d9 773d ccf6 8d3c
00000300: ca0b 54bd bbeb 6cbb c726 113d eda8 7f3c
00000310: 2793 02bd 270d 86ba 0872 273c 4488 75bd
00000320: 3808 b63b d20f 24bb ff87 9abc ba79 873c
00000330: bca9 693d c937 633d eb90 6dbb 9312 0cbd
00000340: 358c b3bc 1fe2 b93c c25f fd3c 2d5f 54bd
00000350: 2f3d 783d f241 e3bc cea3 84bd b844 513d
00000360: 5aa4 69bd 2fae 643d 7419 5d3c 2efb 843b
00000370: 8398 1e3b 50bd bebc f220 74bc e4a2 f23c
00000380: a67a 8f3d 4975 20bd 0002 0e3b 70d6 e8bc
00000390: e36d 053d 7f51 73bd c0a8 8e3d 5908 85bd
000003a0: 21ac 76bc 8af4 07bd b20c cb3c f251 a6bc
000003b0: b3e1 01bd 7375 5d3d 0c98 5d3d d413 05bc
000003c0: 00eb 493d b20a 21bd 3339 473d e538 8d3d
000003d0: 7fe3 6d3d 252a 0f3d 44fa 6fbd b7a2 613d
000003e0: 42de e9bc 6d5f b3bc 2267 90bc 9d98 1f3c
000003f0: 50bb c9bc 95b4 b2bc 77f7 453c bfc6 8c3d
0.0041366573 -0.063242316 0.06390276 0.034462117 0.05528936 -0.0029635031 -0.018866504 0.026622707
0.07082214 -0.022998583 -0.073772684 0.0666122 0.055745363 -0.047609843 -0.028452879 0.06798968
0.023146348 -0.015367854 -0.052171014 0.010259831 0.057667743 -0.033925068 -0.032056186 0.05459394
-0.039131384 0.06943709 0.004194883 -0.03449238 -0.059299387 0.0045004184 -0.0048666033 -0.012689315
0.025478717 0.06857437 -0.010567459 -0.0025794767 -0.002068562 -0.005283094 -0.020239994 -0.060386907
-0.011455734 -0.035243228 0.01822769 0.040957645 -0.020601552 -0.040387098 0.02255167 0.032196358
0.014417725 0.01111507 -0.033236995 0.061166547 -0.02041667 -0.03819046 0.062080257 0.042685278
0.030378599 0.06398273 0.045494612 0.02565405 -0.072195366 0.024823042 -0.031593706 0.025316035
0.019820772 0.05624522 -0.038354408 0.018468987 0.033585656 0.063590065 0.036770154 -0.00092504645
0.009720541 -0.004678677 -0.007084723 -0.0335115 -0.0018857237 -0.0017486616 0.04431365 -0.042627018
-0.050259896 -0.06737693 -0.05158406 -0.029334689 -0.03841306 -0.050629903 -0.06425025 0.017275857
-0.0155314505 -0.028075945 -0.037841003 -0.04855368 0.029948795 -0.07278378 -0.042018656 0.022920964
-0.05956952 0.0017736758 0.012266081 0.048098527 0.060940556 0.005248116 0.0577133 0.04519677
0.016742706 0.036515698 -0.024557967 -0.026444448 0.05751973 -0.065529525 0.013119508 -0.004629772
0.0065055303 -0.042530287 0.019391485 0.04058476 0.026968097 0.014946787 0.04617923 -0.064059675
0.022671906 0.015421377 -0.0102384165 0.0024690304 0.069815904 -0.049719147 -0.022258371 0.051611893
-0.019013925 0.07228323 0.029703652 -0.019534552 0.07355676 0.013514202 -0.028013462 -0.0034600566
0.04190796 -0.04698394 -0.015219432 -0.015409118 0.06470023 0.008310094 -0.065517694 -0.06855759
-0.047085017 -0.017393226 0.014287763 0.044868402 -0.030662194 -0.056224227 -0.050206423 -0.024216153
-0.06997838 -0.032402 -0.0038813972 0.013487787 -0.02605559 0.01857503 -0.0155295525 0.05303813
-0.066317365 -0.049071457 0.051885083 -0.032756276 -0.020251704 -0.025346145 0.047086753 0.03054603
-0.040255863 0.032028247 -0.0024992016 0.0031731196 -0.0040109023 -0.049794726 0.056979444 0.052808344
0.026098631 -0.027937153 -0.048297323 -0.06523353 -0.021984356 -0.008912725 -0.041437488 -0.06108021
0.039834876 0.042398747 0.0023517765 0.054537404 -0.0058422075 -0.06512788 0.060510404 0.017329596
-0.051769055 -0.0036151248 0.03543737 0.01560424 -0.031878617 -0.0010227308 0.010220058 -0.059944406
0.005555179 -0.0025033844 -0.018863676 0.016537536 0.057046637 0.055473123 -0.0036249708 -0.0341974
-0.021917442 0.02269083 0.03092945 -0.05184858 0.060605224 -0.027741406 -0.06476556 0.051090926
-0.057041503 0.055830177 0.013494838 0.0040582633 0.002419979 -0.02328363 -0.014900433 0.029618688
0.07005815 -0.03917435 0.0021668673 -0.028422564 0.0325755 -0.059403893 0.0696578 -0.06495733
-0.015055687 -0.033192195 0.024786327 -0.020302746 -0.031709384 0.054067086 0.05410008 -0.008122403
0.04929638 -0.03931684 0.048638534 0.068956174 0.058078285 0.0349523 -0.05858828 0.055086818
-0.028548364 -0.021896088 -0.017627303 0.009740976 -0.02462545 -0.021814624 0.012082926 0.06873845

conv_list.3.bias f4 [64]
00000000: ed39 4fbd cd58 91bc 1bf6 213d e8fc af3b
00000010: 97b6 c33c 7d8c 923d 816f a93c 96e9 43b9
00000020: a209 9135 8783 733d 2ab8 743d 64b1 ea3c
00000030: 8367 183d aa39 6d3c c601 073d 180b 03bd
00000040: c678 92bd b35c 93bd 03bc 363d 691b 2bbd
00000050: b568 7fbd ff1b 84bd cf3f 403c 4e3a 8c3d
00000060: 73ab 663c bb3e f93b 61c5 fb3b e1a7 1f3d
00000070: 059f 673d 4265 0cbc cedd 8f3d da79 e83c
00000080: b32a 8a3c 2aa0 8f3d 7227 2fbd 8131 03bd
00000090: ed24 40bd 7b0b 45bd 7c55 783d 53c4 3b3d
000000a0: eb44 75bc a78e 14bd 8933 0b3c 2810 75bd
000000b0: 1de9 fabc c0f4 73bd b5cb 77bb fc66 093d
000000c0: f5ce 8e3d 66f2 2c3d fd2e 8bbd 0755 783d
000000d0: 7a44 aa3c 986a 5b3c 173c e83c ced4 87bd
000000e0: 45f4 743d 525a 21bd 68dc 03bd dc55 7c3d
000000f0: 9604 dfbc 9208 cbbc 5517 6e3d f99f b0bc
-0.05059235 -0.017742539 0.039541345 0.005370725 0.023890777 0.07155702 0.020683052 -0.00018683667
1.0806145e-06 0.059451606 0.059745945 0.02864904 0.03720809 0.01447908 0.032960676 -0.031993
-0.07151942 -0.07195415 0.044612896 -0.041774187 -0.062355716 -0.06450652 0.011733963 0.06847058
0.014078963 0.007606355 0.0076834415 0.03897846 0.056548137 -0.008569064 0.07024728 0.028378416
0.016866064 0.07012971 -0.042762227 -0.032029632 -0.046910215 -0.04810665 0.0606284 0.045841526
-0.014970045 -0.036268856 0.008496174 -0.05982986 -0.030628735 -0.059559584 -0.0037810628 0.03354548
0.06973068 0.042223357 -0.06796072 0.060627963 0.020784605 0.013392113 0.028348966 -0.06632386
0.059803266 -0.039392777 -0.032192618 0.06160532 -0.027223866 -0.02478436 0.05812772 -0.021560656

conv_list.4.weight f4 [64]
00000000: a6c9 7e3f 537c 803f 6b34 7f3f 89a4 7f3f
00000010: 7bcb 7f3f 2094 803f 0235 803f 8b6d 803f
00000020: 3c5a 803f 6c73 7f3f 42a5 803f d0fc 7e3f
00000030: d04f 803f 2011 7f3f 4851 7f3f bc24 803f
00000040: 36af 7f3f 5814 803f 4322 803f 130c 803f
00000050: a5dd 7f3f f997 7e3f 75f7 7e3f 15f2 7f3f
00000060: 9b64 803f d9b9 803f 6262 7f3f 27be 7f3f
00000070: 3340 7e3f 1321 803f 56ac 7e3f 7420 803f
00000080: 5ed4 7f3f 42d8 7f3f c2b0 7e3f e09c 7d3f
00000090: 0c2d 803f 7b8b 7f3f a703 803f c6b4 803f
000000a0: fbc4 7f3f edeb 7f3f 09ed 7e3f 8bb8 7f3f
000000b0: 19fc 7e3f 4cf9 7e3f f48b 803f 41c0 7f3f
000000c0: 2474 7f3f d84a 7f3f 8320 7e3f e7f3 803f
000000d0: 656f 7e3f d728 7f3f 4b93 7f3f 36d0 7e3f
000000e0: 068b 7f3f 711c 803f 4132 803f b03f 803f
000000f0: 29f3 7e3f 969c 7f3f 028a 803f 189e 7f3f
0.9952644 1.0037941 0.9968936 0.99860436 0.9991986 1.0045204 1.0016177 1.003343
1.0027537 0.99785495 1.0050433 0.9960451 1.0024357 0.99635506 0.997334 1.001121
0.99876726 1.0006208 1.0010456 1.0003685 0.9994758 0.9945064 0.9959634 0.9997876
1.0030702 1.0056716 0.99759495 0.99899524 0.9931671 1.0010093 0.99481714 1.0009904
0.9993342 0.9993936 0.9948846 0.990675 1.0013747 0.99822205 1.0001115 1.0055168
0.99909943 0.9996937 0.99580437 0.99890965 0.9960342 0.99599147 1.004271 0.9990273
0.9978659 0.9972358 0.9926836 1.0074433 0.99388725 0.9967169 0.99834126 0.99536455
0.9982151 1.000868 1.0015336 1.0019436 0.9958978 0.99848306 1.0042117 0.99850607

conv_list.4.bias f4 [64]
00000000: 4659 e1ba 7d4d 083b 3ca1 3d3b ab93 17bc
00000010: 4a5a f1b9 fc68 863b d736 913b 3a77 923b
00000020: 07d2 13bb 2319 4fbb 9815 1c3c 9af2 babb
00000030: 205a 8e3b 3d60 e4ba e90e 933a d9db afba
00000040: 5a3f e439 ced4 1eba 9f93 69bb 52e4 07bc
00000050: f163 573b 13d1 7dbb 85dc 08bc 6bb4 1b3a
00000060: 1f5e 093c 0f80 5abc 8faf c2bb 71e8 a7bb
00000070: 3c33 8dba 4ac5 853b 652f 23bb 9222 c0ba
00000080: b78b 33bb bf73 a73a 636c 09bb d431 68bb
00000090: 5bbe 9dba 025f a63b afdc c43b d8cf 8ebb
000000a0: e435 8a39 3343 b83b d460 1d3b 1a5d 863b
000000b0: f195 fd3a 6aaf 303a 9f7f 3dbb f73e cd3a
000000c0: 2559 993a 6884 45bc 7351 0abc 86ca ff3b
000000d0: 3f19 39ba e4d5 1cbb c3e2 803b b360 753b
000000e0: 4223 823a 56c8 853b e639 08bb f8a4 aeb9
000000f0: a958 113b fe16 8cba 1309 113b 201a 43b9
-0.0017192743 0.002079814 0.0028935215 -0.009251515 -0.00046034373 0.0041018706 0.0044315862 0.0044697793
-0.0022555606 -0.0031600676 0.009526633 -0.00570519 0.00434424 -0.0017423701 0.0011219654 -0.001341696
0.0004353475 -0.0006058932 -0.0035640968 -0.008294182 0.0032865966 -0.0038729354 -0.008353357 0.0005939665
0.008384257 -0.013336196 -0.0059413384 -0.0051241447 -0.0010772715 0.0040823566 -0.0024900076 -0.001465874
-0.002739651 0.0012775584 -0.0020969145 -0.003543009 -0.001203488 0.005077244 0.006007753 -0.004358273
0.00026361563 0.005623245 0.0024014013 0.004100454 0.0019347054 0.0006740006 -0.002891518 0.0015659024
0.0011699541 -0.012055494 -0.008442271 0.007806125 -0.0007060952 -0.00239312 0.003933282 0.003744167
0.000992872 0.00408272 -0.0020786463 -0.00033310778 0.002217809 -0.0010688005 0.0022130653 -0.00018606381

conv_list.4.running_mean f4 [64]
00000000: 9645 aabd 7c0c e7bd 10dc a0be 4ee6 673d
00000010: 8971 623c e7ed 343d 16d1 f3be a52b 87be
00000020: c2b8 8e3e 1f02 99be 7b7a 0e3f ef03 9dbd
00000030: a27a c33e 8a5a 1dbd 9b72 033f 1ad6 6cbe
00000040: aec4 34be c811 1fbe 26a8 933e 3c1d 5e3e
00000050: 43e3 16be 9466 15bf 3139 cd3d ec9d 383d
00000060: 492a 8fbe 50a7 933e 0293 263d 433d b5b8
00000070: 5546 503d 180d ecbe 06f2 1d3c de6e 643e
00000080: f69e 523d 48a4 033e 118c 8f3e 7de5 09bf
00000090: b3d5 82be aff8 debe 84ff 3a3e 8169 0c3e
000000a0: 09ea 46bd e54a ce3d 446e 5a3c 5f6b babd
000000b0: 4fa8 243e 3195 ad3e 87ce 113d b029 6bbe
000000c0: 6ec1 f5bd 4329 f93d f400 ab3d 8f04 053d
000000d0: 66f9 063d eb77 3dbc a400 fbbd e11d 46be
000000e0: 288c bd3c b187 08be db36 503c 1190 963e
000000f0: d861 0dbf a2b4 bebd 4f26 d93c 935e c6be
-0.08314054 -0.11281678 -0.31417894 0.05661612 0.013821014 0.044172194 -0.47620457 -0.26400486
0.27875334 -0.2988443 0.5565564 -0.07666766 0.381795 -0.038416423 0.5134675 -0.23128548
-0.17653152 -0.15534127 0.28839225 0.2169084 -0.14735131 -0.58359647 0.10020674 0.04507248
-0.2796195 0.28838587 0.04066754 -8.6421634e-05 0.050848324 -0.4610374 0.009640222 0.22307917
0.05142113 0.12855637 0.2803655 -0.53865796 -0.25553665 -0.43549106 0.18261534 0.13712122
-0.048563037 0.10072879 0.013331953 -0.09102511 0.1607983 0.33902887 0.03559735 -0.22965121
-0.119997844 0.12166073 0.08349791 0.03247505 0.03295269 -0.011564235 -0.122559816 -0.19347335
0.02313812 -0.13333012 0.012708391 0.2940679 -0.5522742 -0.09311797 0.026507525 -0.3874403

conv_list.4.running_var f4 [64]
00000000: 2efa e33d d67f 4d3e c191 903e e38f 1a3e
00000010: 07af 123e 5b66 053e 5cea e13d 05f8 bc3d
00000020: a926 683e b2db 533e 73b8 603e d1e3 173e
00000030: 0dbe 663e 9d80 4f3d fda5 0a3f d11a f03d
00000040: 7c40 763d e053 0f3e fb4d 4b3e 885e 493e
00000050: 15e7 c63d 5305 313e 02ed e23d 053b 003e
00000060: a7a9 b03d 3dcc ba3e eb14 c73d 2a75 243e
00000070: 9edc 313e 207d 3b3e 3ace eb3d 1d58 9c3d
00000080: 4b65 c83e 3458 cb3d 443c a13e df90 753e
00000090: cbed 123e f613 103e 80bc a83d 3c6f 8b3e
000000a0: 1179 ef3d 0c80 8a3d a2e3 133e 852b c13d
000000b0: 627d d23d 2331 b23d ee33 113e ee99 893d
000000c0: c269 d43e 1a31 233e 800d 233e 0e4f 7c3d
000000d0: 8093 043e 5b4b 1a3e 882d 813e 3166 e43d
000000e0: 3a7f a53d 2164 4b3e 981b a53d 4d51 283e
000000f0: 592f 843e 6260 ce3d 34fa b83e d1c7 383e
0.11131702 0.20068297 0.282362 0.15093951 0.1432458 0.13027327 0.11031029 0.092269935
0.22670998 0.20689276 0.21945362 0.14832999 0.22533436 0.050659765 0.5415953 0.11723865
0.06012009 0.1399684 0.19853966 0.19664967 0.09712044 0.17287187 0.11080362 0.12522514
0.086261086 0.36483946 0.09720787 0.1606032 0.17369315 0.1830945 0.11513944 0.07633994
0.3913978 0.09928933 0.31491292 0.23981045 0.14348523 0.14070114 0.082390785 0.27233303
0.116930135 0.06762704 0.14442304 0.09432129 0.10277821 0.08700778 0.14179966 0.06718813
0.41486937 0.159367 0.15923119 0.06159883 0.12946892 0.15067808 0.2523005 0.11152304
0.08080907 0.19862415 0.08061904 0.16437264 0.25817373 0.10076977 0.3612839 0.18044974

conv_list.6.weight f4 [64, 64, 3]
00000000: f9d5 5a3d b326 50bd 80cb 153c 32e8 723d
00000010: 15c8 23bd bd43 7fbc 2529 1bbd 0ad5 a3bb
00000020: 41b6 57bd cb9e 793d 4eb1 24bd 699d 903d
00000030: 7910 7ebd 09df 7cbd 6d7f 0f3d f6aa 81bd
00000040: 1b4e 873d 77a8 88bd e4eb 91bb 536d 43bd
00000050: c2a5 27bd 2dab 6fbd 2543 b23c 02f7 80bd
00000060: 0896 82bd 7bd9 95bc 3aba 7bbc f340 8e3c
00000070: 1a8f 023d f114 e1bc c84e 9c3c 6222 9fbd
00000080: e807 083c fdaa 4ebd c3bf 123c 0cc3 7cbc
00000090: 0f1e 7dbc d8ed 383d 8d0c 9abd f1d1 5abd
000000a0: 6606 8e3d a404 3d3c e87a 8fbd d174 073d
000000b0: 6d77 08bd ae6f 063c 1914 8a3b f129 073c
000000c0: 1bfe 4dbc b942 2f3d 84a6 08bd d847 7b3c
000000d0: 4128 93bb 5fe8 1abb 762a 59bd b6d4 8d3d
000000e0: 55ce 50bd a6b5 d23c 9acc 04bd 8f23 dabc
000000f0: b489 4bbd f05e 683d 4105 5bbd 6f92 d8bc
00000100: e08f 50bc ab31 ac3b 8c61 043d 7b93 e83c
00000110: b499 66bd 02c6 fabc a631 34bd 4bed 83bd
00000120: 3787 96bc 3d20 e93c 9dbb 7bbc 62ea 19bc
00000130: 527c 84bd 08ae dfbb 24fd 9cbc 3c98 78bd
00000140: 9ab4 733c bd09 59bd dfb0 8b3d 01ff b93c
00000150: 6e22 fabc 9617 1abd 9d03 8a3d 5d85 8f3c
00000160: e2b2 943d bdb3 633d 0b19 883c e495 31bc
00000170: c31b 7e3b 7aa9 023c 2849 31bd bf01 5fbd
00000180: bda0 d43c f470 863d 1abe 923d 89c7 47bd
00000190: 884b 513d 0562 48bd d710 f3bc 027b a33c
000001a0: 3829 2fbd d866 743c 8c41 903a 5868 1cbd
000001b0: cecb 153d 0381 8c3c ce57 d6b9 4d80 2abd
000001c0: 2434 12bd 0afb 1abd 4a11 2fbc 365b 57bd
000001d0: 16c8 89bd 54d9 80bc 684a 1b3d d57f 3ebd
000001e0: 9c72 e23c 9caa c93c f395 22bd 9070 a73c
000001f0: 906f caba fe05 9d3c c43d 9a3c 2062 19bd
00000200: 95d2 703d f012 81bd 6cbe 17bc 6b28 4d3d
00000210: 6daa 4c3c f52c 1f3d 102d b9bc 16cc f43c
00000220: d5b2 6bbc ac5c 4a3c 51ad 713d 7e52 823d
00000230: 5986 68bd 0965 b43c 32c8 d43c fed0 e3bc
00000240: f295 893d 7bab 10bd 4208 843d 78ca 36bd
00000250: f3cd f6bc dd81 5abd ba18 9a3c ee1d f73c
00000260: 73f2 463d 32d2 443b 2fe8 dfbb 4b42 063c
00000270: f343 c1bc e060 573d 98a0 b0bb e524 8a3d
00000280: 4a66 783d 0295 843d 80a1 9abc b051 683d
00000290: 83d1 103b 49d6 023d 8282 623d 9809 4bba
000002a0: e9d4 6dbd d704 16bd 50db e83c 774e c2b9
000002b0: 1404 81bc 9c7c 9b3c 8788 673d 63c6 4cbd
000002c0: 6491 43ba e085 59bc 69ec 383d 8536 073d
000002d0: 1122 403b 805f 80bd 440d 723d 295a 25bd
000002e0: 7d60 5fbd d195 8f3d a55e 823d 6071 9f3d
000002f0: a3a1 5b3d 690f 50bd 1f61 633c b854 e2bb
00000300: bb42 293d 90a1 023b e51c 973c 5172 5e3d
00000310: 5977 763c ce64 d73c 4e05 19bd fa7b 2d3b
00000320: 4dd0 afbc b7e3 88bd ca73 f339 df33 113d
00000330: e838 793d 2cbb bd3b f818 443d 8a34 00bd
00000340: 9528 03bd 14f8 863c 1c1f 92bd c32f 313d
00000350: ec34 5cbb 75ed 133d 7b12 d33c 87b7 4c3d
00000360: 53b2 443d 7f4a 393d b78a 883d 7da7 a43c
00000370: 43af 073d 6fd8 8fbc b6a4 35bd ee02 a73c
00000380: 9392 b9bb b185 863d a77e 64bd 07c1 7d3d
00000390: 3244 893b 980a 13bd 9bfd 243c 0a4b 87bc
000003a0: 9503 8abb 9d98 433c ccae 353d 4e46 2d3d
000003b0: e50c 74bd fde7 e63b 8f93 2ebc b556 1cbd
000003c0: e035 f83b 2bac 55bd 9010 5a3c a42b 37bd
000003d0: 33f8 053c e9cd 3a3b 34f7 b23b 3582 253d
000003e0: 0899 0b3d acaa 9a3b f87c 003c 8aee 533c
000003f0: 509c e3ba 6331 653d 8e5f 5a3d 93f0 20bd
0.053426716 -0.050818156 0.009142756 0.05930347 -0.039985735 -0.015580115 -0.037881035 -0.0049997615
-0.052664045 0.060942452 -0.040208153 0.070612736 -0.06202743 -0.06173614 0.035033632 -0.06331436
0.06606694 -0.06672757 -0.004453169 -0.04771168 -0.040929563 -0.058512855 0.021760533 -0.06297113
-0.063762724 -0.01829218 -0.015364224 0.017364955 0.031874754 -0.027475806 0.019080535 -0.0777023
0.008302666 -0.050456036 0.008956852 -0.015427362 -0.015449061 0.0451487 -0.07521925 -0.053422872
0.06934814 0.011536751 -0.070058644 0.03307039 -0.03331702 0.008205337 0.0042138216 0.008249746
-0.0125727905 0.04278824 -0.033361927 0.015336953 -0.0044908826 -0.002363704 -0.05301901 0.06925337
-0.050978024 0.025721382 -0.032421686 -0.026628284 -0.04969187 0.056731164 -0.053471807 -0.026437012
-0.012729615 0.0052549443 0.03231959 0.028390637 -0.056298926 -0.030611996 -0.04399266 -0.064417444
-0.018375022 0.028457755 -0.015364555 -0.00939426 -0.06469025 -0.006826166 -0.019163676 -0.060692057
0.014874602 -0.052987803 0.06820845 0.022704603 -0.030533995 -0.03762015 0.067389704 0.017519647
0.07260682 0.055591334 0.016613504 -0.010838959 0.0038773871 0.007974977 -0.043282658 -0.054445025
0.025955552 0.06564513 0.07165165 -0.048774276 0.051097423 -0.048921604 -0.029671116 0.019956116
-0.04276392 0.014917098 0.0011005863 -0.038185447 0.036571316 0.017151361 -0.0004088268 -0.041626263
-0.035694256 -0.037837066 -0.010685274 -0.05257722 -0.067276165 -0.01572863 0.037912756 -0.04650863
0.02764254 0.024617486 -0.039693784 0.020439416 -0.0015444625 0.019167896 0.01882828 -0.037447095
0.058794577 -0.0630244 -0.009261709 0.050087374 0.012491805 0.038861234 -0.022604495 0.029882472
-0.014385899 0.012351196 0.059003178 0.063633904 -0.05676875 0.022020834 0.025974367 -0.027809616
0.06718053 -0.035319787 0.064468876 -0.044626683 -0.030127501 -0.053346504 0.018810619 0.030165639
0.04857106 0.0030032513 -0.0068330984 0.008194516 -0.023591971 0.05258262 -0.005390238 0.06745318
0.060644425 0.064737335 -0.018875837 0.05671853 0.0022097535 0.03194264 0.055300243 -0.0007745265
-0.058064375 -0.03662571 0.028424889 -0.00037061024 -0.015749015 0.018980317 0.056526687 -0.049993884
-0.00074603246 -0.013276547 0.045147333 0.03301098 0.002931718 -0.06268215 0.059094682 -0.040369187
-0.054535378 0.07010997 0.06365708 0.077852964 0.053620946 -0.050795946 0.013878136 -0.006907072
0.041323405 0.0019932725 0.018446395 0.05430824 0.015043103 0.026293185 -0.037358575 0.00264716
-0.02146163 -0.06684058 0.0004643484 0.03544986 0.060845286 0.005790135 0.047875375 -0.031300105
-0.032021124 0.016475715 -0.0713484 0.04325844 -0.003360088 0.03611513 0.025765648 0.049979713
0.048021626 0.04523706 0.06667083 0.020099396 0.033126127 -0.017559258 -0.044346534 0.02038714
-0.005663225 0.06568468 -0.055784848 0.061951663 0.0041890377 -0.035898775 0.01007023 -0.016515274
-0.004211853 0.011938241 0.044356152 0.042303376 -0.05958261 0.007046698 -0.010655298 -0.038168628
0.007574782 -0.052166145 0.013309613 -0.044719353 0.008176851 0.002850408 0.005461598 0.04040738
0.03408149 0.0047200527 0.007842295 0.01293529 -0.001736531 0.055955302 0.053313784 -0.03929193

conv_list.6.bias f4 [64]
00000000: 6210 32bd 6c26 43bd d865 f73c b48d 903d
00000010: 377e 49bd 5feb b8bc a475 f7bb df10 e53c
00000020: 2b7d d6bb 1a62 8a3d 4517 933d 58d6 163d
00000030: 2d1d 8ebd 0afc 70bd 97f7 ba3c 8b66 1c3a
00000040: 0755 293d f46a 223d a060 0b3d 517d 07bd
00000050: cb36 85bd ebd2 25bd a9f8 2f3d 86ba 4dbd
00000060: 0e6e 143d fbb6 113b f7a6 2a3d 4136 e4bc
00000070: 7c88 573d 5c3a 873d 878a 11bd 6504 96bc
00000080: d6ff 503d b618 733d 84a3 8d3c a239 e33c
00000090: c466 eabc e299 c43c bba8 7b3c d3a0 62bc
000000a0: cc64 423d 892d 5ebd c651 933a 8f4a 463a
000000b0: 2060 403d fff4 66bd 03a4 45bd e0bb adbc
000000c0: fe55 883c b1fc 373c bc30 4ebd ddc0 36bd
000000d0: 5a7d 14bd a5f3 1a3d e83e d53b 0c4f dd3c
000000e0: 2c16 ccbc a2a7 313d 340b 39bd 4427 bbbb
000000f0: b3a6 843d 24b3 3cbd 4e62 8abd 59ce 213d
-0.043472655 -0.047644064 0.03019993 0.07058278 -0.049192633 -0.022573171 -0.0075518657 0.027962146
-0.006545683 0.06756993 0.07182173 0.036825508 -0.069391586 -0.058834113 0.022823138 0.0005966208
0.041340854 0.03965278 0.034027696 -0.033078495 -0.065045916 -0.04048435 0.04296175 -0.05022671
0.03623777 0.002223431 0.041663136 -0.027857902 0.052620396 0.06602928 -0.0355325 -0.018312642
0.051025234 0.059349738 0.017289884 0.027737442 -0.028613456 0.023999158 0.015360053 -0.013832289
0.04745941 -0.054242644 0.001123958 0.00075642107 0.046966672 -0.05638599 -0.048252117 -0.02120775
0.016642567 0.01122968 -0.050339445 -0.044617523 -0.036252357 0.037830014 0.006507743 0.027015232
-0.024912916 0.043372758 -0.0451767 -0.005711468 0.06477108 -0.04606928 -0.067570314 0.03950343

conv_list.7.weight f4 [64]
00000000: 4e63 7f3f 01e4 7f3f 19bd 803f bd4d 7e3f
00000010: 5d94 7f3f 537c 803f 2a03 803f b760 7e3f
00000020: a352 7f3f 5708 803f 82f7 803f 508e 7f3f
00000030: 1510 7f3f 63c5 7d3f d21f 803f 1376 7f3f
00000040: c864 7f3f 6320 7e3f 825c 803f 6c03 803f
00000050: 6a3b 803f 1876 7f3f 10d8 803f 493f 803f
00000060: 1e74 7e3f 838e 7e3f ecd5 7e3f a90f 803f
00000070: c298 7f3f 843a 7e3f 4c45 7e3f c21e 803f
00000080: b86a 7f3f 2a4d 803f bf91 7f3f 7faf 7d3f
00000090: 5671 7f3f cada 7e3f f3b7 803f 68db 7e3f
000000a0: 4cdd 7f3f 9580 803f 1269 7f3f eecf 803f
000000b0: 975f 803f 0555 803f 78c9 7f3f 7a17 7f3f
000000c0: 3612 803f 150e 803f a0ac 803f f954 7f3f
000000d0: 80d0 7f3f 46b6 7e3f 26ff 7f3f 3e4f 803f
000000e0: 0c91 803f 7f99 803f f12a 7e3f 7ae5 7e3f
000000f0: 255a 7e3f 408c 7f3f 6986 803f 6f8c 803f
0.997609 0.9995728 1.0057708 0.9933737 0.9983576 1.0037941 1.0000966 0.99366325
0.9973547 1.0002545 1.0075533 0.99826527 0.99633914 0.99129313 1.0009711 0.9978954
0.99763155 0.9926817 1.0028231 1.0001044 1.0018132 0.9978957 1.0065937 1.0019313
0.9939593 0.99436206 0.9954517 1.0004779 0.99842465 0.9930804 0.9932449 1.0009387
0.99772215 1.0023549 0.99831766 0.9909591 0.9978231 0.99552596 1.0056137 0.9955354
0.9994705 1.003924 0.997697 1.0063455 1.0029172 1.0025946 0.9991679 0.996452
1.0005558 1.0004297 1.0052681 0.99739033 0.9992752 0.9949688 0.999987 1.0024183
1.0044265 1.0046843 0.99284273 0.99568903 0.993563 0.9982338 1.0041019 1.0042857

conv_list.7.bias f4 [64]
00000000: bd9f 32b9 1b45 8fbb af56 6cbb 5d5d da39
00000010: 5cf4 50bb 32cd 893b 912b e7bb 6715 ee39
00000020: 3376 87bb 03bb 1b3c 39f9 1fbc d032 fd3a
00000030: f2b7 0cbb 4063 92bb 1cce a33b 46f4 8cba
00000040: 5653 873b e210 93ba 3e42 a33b 79db e2bb
00000050: aa6c 7dba 7108 ab3a 9d12 bc3b 8d21 84bb
00000060: a7d8 c9ba b040 dcba 1e88 b0ba bfdd e7bb
00000070: 0dbc d03b 0962 5bbb 6b11 86bb 1022 ee38
00000080: dc3b 4f3b 6446 ea3a 8cf7 11bc 5e24 c2bb
00000090: da99 47bb 715f dfba d07e 8abb f26b 09bb
000000a0: b653 3a3b 5f14 c73b d272 6fbb bb91 273c
000000b0: 6800 b5bb 34eb 27bb 79dd 2eba c455 91bb
000000c0: 2ae7 5b3b 29f4 5b3b cff1 f53b eb2c 27bb
000000d0: 4e8b 543b 3b58 34bb a458 0e3b 384a 103b
000000e0: f2a3 c33b b0e5 b83b b12b 7dbb 3b31 d1bb
000000f0: 9755 01bc e8d2 e838 f0a0 cc3b a528 ec3b
-0.0001703491 -0.0043722517 -0.003606241 0.0004164976 -0.003188393 0.0042053694 -0.007054754 0.00045410843
-0.0041339635 0.009505036 -0.009764009 0.0019317511 -0.0021471945 -0.004467398 0.0049989354 -0.0010753952
0.0041298075 -0.0011220241 0.004982262 -0.006923136 -0.0009667376 0.001304878 0.0057395236 -0.00403232
-0.001539965 -0.0016803946 -0.00134683 -0.0070759947 0.0063700737 -0.0033475182 -0.004091432 0.00011355069
0.0031621372 0.0017873761 -0.008909117 -0.0059247455 -0.0030456693 -0.0017041994 -0.004226543 -0.0020968881
0.0028431243 0.0060754265 -0.0036536944 0.010227616 -0.00552373 -0.002562237 -0.0006670575 -0.004435273
0.0033554533 0.003356228 0.0075056325 -0.002550895 0.0032431665 -0.002751841 0.0021720314 0.0022016894
0.0059704715 0.0056426153 -0.0038630778 -0.0063840426 -0.007893941 0.000111019064 0.006244771 0.0072069936

conv_list.7.running_mean f4 [64]
00000000: e8d0 26be 8af1 863e 2a94 87be 12f7 2c3e
00000010: ae5a febc ab0c 1f3e b3c1 683d 2bb6 253e
00000020: 9bf6 11be 8781 b03e cda5 983e d5e5 b3bd
00000030: 0614 503e de1d bdbe 78a9 973e b968 00bf
00000040: 2a66 68bd bbab 803d defc e33c 35cb bf3c
00000050: 154d 183e a9a7 2e3e d33d 8ebd a9b5 f23d
00000060: f665 efbc 2fb7 d7bd 26b3 7f3e f3a1 b03d
00000070: c05d f2be eaa0 623e 94b6 713b e7c2 2abe
00000080: 9d1c ad3e 075a 833d 20c6 143e 2f2c 7c3e
00000090: 92e0 91be 9665 e5be d8e4 f63e 5b48 4abe
000000a0: 4677 343e 2fcf 79bd f929 4cbe ad9f 713e
000000b0: df8e d83e b32d 09be 7ac2 d43c 5290 b9bd
000000c0: 26b1 3ebd 2f29 47be ea91 7cbd 0816 ce3e
000000d0: 83d3 983e 865b e3bd 4d1b b7be e4fd ba3d
000000e0: 9e75 803c fb9d 993e a6cb 40bd 2e9d 1c3e
000000f0: a055 b93e ce01 9e3d fbb2 c0be 5742 b33e
-0.16290629 0.26356155 -0.26480228 0.16891125 -0.031049099 0.15532176 0.05682535 0.16182773
-0.14254229 0.34473822 0.29813996 -0.08784071 0.20320138 -0.3693685 0.29621482 -0.50159794
-0.056738056 0.06282755 0.027830537 0.023412326 0.14873154 0.17056145 -0.06945386 0.11851055
-0.029223423 -0.105329864 0.24970683 0.08624639 -0.4733715 0.22131696 0.0036882507 -0.16675912
0.33810893 0.06413656 0.14528704 0.2462623 -0.28491646 -0.44804066 0.4822147 -0.19754164
0.17623624 -0.0609886 -0.19937886 0.23596068 0.42296502 -0.13396339 0.02597164 -0.0906073
-0.04655566 -0.19449304 -0.061662592 0.40251184 0.2984887 -0.11101441 -0.35763016 0.09130457
0.015681084 0.30003342 -0.047069214 0.15294334 0.3619814 0.07715188 -0.3763655 0.3501155

conv_list.7.running_var f4 [64]
00000000: 1439 343e 4799 133e 749f 243e f745 103e
00000010: 9f89 153e 4bfc e33d 42fd a73e eccf 8d3d
00000020: 996c e43d 9534 0d3e 34a8 9d3e a13f 0e3e
00000030: 454e 173e e88b 403e 2d45 6d3e fe30 453e
00000040: 8679 483e 5f50 b83e 896c 1d3e f74d 9e3e
00000050: 0950 173e f1e7 2d3e 7597 3a3e d550 fe3d
00000060: cc19 893d 02de ae3d c31b df3d 5eda 7f3e
00000070: 6e16 0a3e 4b79 c13d 6a4a 623e ae4d 1a3e
00000080: 0266 ed3d 956d bf3d a649 843e 16ff 063e
00000090: 6474 793e 2bc2 9f3d 06ae e03e 8ea5 233f
000000a0: 5d35 d83d 06d9 b83d fbcf 9d3d 2a63 a93d
000000b0: 9b64 b63e d392 2f3e ac23 b13d 0585 673e
000000c0: 2baf 613e feda 233e 1e76 843d 26dc cd3d
000000d0: b8e9 073e 10fa 913d 631e 643e 3423 c03d
000000e0: d8bb e43d 78bf fe3d b59b 553e 361f ae3d
000000f0: acc6 163e c37a 953d fc89 3c3e bb82 213e
0.17599899 0.1441394 0.16076452 0.1408919 0.1460328 0.111321054 0.32810408 0.069244236
0.11153526 0.1378959 0.3079239 0.1389146 0.14775951 0.1880337 0.2317092 0.1925697
0.19577608 0.35998818 0.15373434 0.30918857 0.14776625 0.1698301 0.18221839 0.12417761
0.066943735 0.085384384 0.10893967 0.24985644 0.13485119 0.09446963 0.22098699 0.15068695
0.11591722 0.09347073 0.2583744 0.13183245 0.24360806 0.078007065 0.4388277 0.6392449
0.10557053 0.09025769 0.07705685 0.08270867 0.3562363 0.17145853 0.08649382 0.22609337
0.22039478 0.16001508 0.064678416 0.100517556 0.1327275 0.07127774 0.22277217 0.093817145
0.11168641 0.124388635 0.20860179 0.08502047 0.14724225 0.072988056 0.18412012 0.15772526

conv_list.9.weight f4 [64, 64, 3]
00000000: aa48 213d e928 533d 5563 ab3c ffe7 cbbc
00000010: fd32 073c ff7a 71bd 9c36 2abd 516d 4e3c
00000020: 8243 d33c d0c9 9f3c 30e5 603d 5108 6fbc
00000030: 8fb2 6a3d 9cec a6bc 2a80 cd3c 6782 0b3c
00000040: cf4f 86bd b9fe 7abd f7a1 963d 2131 89bd
00000050: fcbe 40bd 2957 573c 18f0 373d b9d9 0a3d
00000060: 5c4a 70bd 0371 f7bb 4393 333c f0f8 47bd
00000070: 1b57 19bd 8a43 72bd 95b2 e43c 661f c63c
00000080: d441 883c fa25 4cbd fb45 8ebd e63c 9d3c
00000090: 91cc 7abc f51d 87bc 6618 beb9 8961 713b
000000a0: 62ee c53a 12c5 08bd 0071 543d 9368 4b3d
000000b0: aca5 583d f27e c43c 056f 43bc 3f0a 72bd
000000c0: b099 4dbd 90b4 86bd 2cca 643d 8d76 0a3c
000000d0: 66c1 77bd 07c4 513a ff72 2ebd 76fb 803d
000000e0: 58d2 e0ba d3d7 4ebd 543e fb3c d7f9 1d3d
000000f0: c8d6 943d 1373 793d 3db6 61bd e5ee 503d
00000100: ad8f 353d feb1 79bd 02e3 96bd 0edd 6dbd
00000110: efdb ea3c c3bc 0dbc fc51 633c 37fc 07bd
00000120: 7a18 083c 5b53 963c 7014 b03b 82d2 52bd
00000130: 99bc 1c3d aa67 42bd 5af9 223d 304b 88bd
00000140: 2869 873d f1a1 7ebd d5a6 31bd a99b 133d
00000150: 9109 d43c cb9a d53c d254 8d3d 3fe2 a2bb
00000160: be67 813d b272 843d f331 123d 8c50 14bd
00000170: 8cf8 8b3c 35ab cbba 99da cabb ccb7 9b3b
00000180: cc73 62bd ae41 8f3d 7f26 703d f914 ec3c
00000190: 5904 86bd b562 96bd c308 40bc 4dca 873c
000001a0: 5542 773d ee0d a4bc d442 e13c ef9b fe3c
000001b0: c824 89bd d06b f2bc 84cd fa3c 6c68 493c
000001c0: c4d2 0dbd a509 50bd aa55 28bd 4d38 93bd
000001d0: e75c 5bbd 5e27 5d3d 07aa 2c3d 0e8f 893d
000001e0: 5144 3b3d c74a 7fbd 023a 7dbd 39c0 8d3c
000001f0: a861 903d c55e 2e3d 2a35 0abd 9f9c 7fbd
00000200: 17bc 34bc 1ec6 2ebb b3c1 65bb 1c6f 583d
00000210: 12e7 993c 286b 0ebd 61db 5abd 22ce 20bd
00000220: ca6b 333d fcd2 d0bc dfc0 97bc 6020 423d
00000230: 3a97 563c 1fe5 c23c 7212 013c 7ef3 39bd
00000240: 3e6d c4bc c977 8d3d a4cf 4abc f9a7 4c3d
00000250: 6a04 66bd fc29 65bd 5e51 00bd 6c47 463c
00000260: 8477 e039 e44d 49bb 0170 3c3c c8f5 edbc
00000270: bc65 54bd 0ed6 fe3c d1cf 90bc f399 213c
00000280: 54a9 7d3b 952c 73bd 3fb3 123d ef03 123c
00000290: 0861 1cbc cd7e 90bc 4c22 113d f492 17bd
000002a0: 3e38 cf3c 2486 89bc a210 403d c8cf 27bd
000002b0: a176 cebb 47af 723d aa8a 4dbc dad9 0a3d
000002c0: 7051 07bc 01ea 693d 3058 80bc 774e c03c
000002d0: e4bc 40bd 7a95 083d d695 213d 4638 cabc
000002e0: e10e 83b9 7492 9fbc a13a 01bc 8b5f 2b3d
000002f0: 0938 073d eda4 2c3d 9577 503c 0897 073c
00000300: 6b6f 82bd 1394 493d 82f7 89bc abfa e33b
00000310: 4244 8c3d e639 7e3d a152 3cbd 35f3 8e3d
00000320: bca4 953c c7ce fbbc e275 2fbd 6ef1 91bd
00000330: 8bb9 8d3c 5984 fabb 4952 f43c bea5 6d3d
00000340: 46a5 c3ba a681 85bb ad44 07bd f53c 5c3d
00000350: 4b93 3f3d 845b 52bd 19ee 263c cb7e 76bc
00000360: 9b85 993c 9dd6 7dbd a6b2 7dbd cce9 783d
00000370: 846e 2abd 7a02 1e3d 36cb 4ebd b985 5abc
00000380: 0065 53bd 0339 5e3d a7a2 71bd ecb2 e53c
00000390: 4281 0b3d 6b23 febc 0856 8abd 309d 2b3d
000003a0: bdba 04bd ba51 f03c a246 273d aa6e 79bd
000003b0: 434f d5bc b403 173d a1bb 383c d6ad 3cbd
000003c0: 5487 22bd d0a6 2f3d 9c36 fabc a24a 8e3d
000003d0: ca91 3a3d 8871 3b3d 548d 1fbd 6d77 393d
000003e0: c48d 9dbc 6617 573d 7f92 933d 26b7 923d
000003f0: 8dff 083c 489e 833d ce9d 9a38 3388 a83c
0.03937594 0.051552687 0.020921389 -0.024890898 0.008251903 -0.05895519 -0.041555986 0.012599305
0.025789026 0.019505411 0.05490607 -0.014589385 0.057299193 -0.020376496 0.025085527 0.008514977
-0.06558191 -0.06127808 0.07355111 -0.06698824 -0.047057137 0.013143339 0.044906706 0.033899043
-0.058664665 -0.007551314 0.010960403 -0.04882139 -0.037436586 -0.05914644 0.027917186 0.024184894
0.016632952 -0.049840905 -0.069469415 0.019194078 -0.0153075615 -0.016493777 -0.00036257802 0.0036831817
0.0015100951 -0.033391066 0.051865578 0.049660277 0.052892372 0.023986313 -0.011928325 -0.059091803
-0.050195396 -0.06577408 0.05585687 0.008451116 -0.060487173 0.00080019276 -0.042590138 0.06297962
-0.0017152531 -0.050498795 0.030669369 0.038568344 0.07267529 0.06090076 -0.055105437 0.051009078
0.044326473 -0.060960762 -0.07367517 -0.058072142 0.028669326 -0.008650961 0.013874527 -0.033199515
0.008306617 0.018350294 0.00537353 -0.051470287 0.0382658 -0.047462143 0.03978858 -0.06654966
0.06611854 -0.062166158 -0.043371994 0.03603712 0.025883468 0.026074788 0.06900944 -0.0049708183
0.063186154 0.06467189 0.035692167 -0.036209628 0.01708629 -0.0015538695 -0.0061906097 0.004752135
-0.055286214 0.06994949 0.058630463 0.028818594 -0.06543798 -0.073430456 -0.011720839 0.016575957
0.060365994 -0.020026173 0.027497686 0.031080214 -0.066964686 -0.029592425 0.030615576 0.0122929625
-0.03462483 -0.050790448 -0.04109732 -0.07188473 -0.053555395 0.05399262 0.04215434 0.06716739
0.04571945 -0.062327173 -0.0618229 0.017303573 0.070498765 0.042570848 -0.033742107 -0.062405225
-0.011031172 -0.002666838 -0.003505808 0.052840337 0.01878694 -0.03477016 -0.053431872 -0.039259084
0.043803968 -0.02549123 -0.018524585 0.047394156 0.013097579 0.023790894 0.007877933 -0.045398228
-0.023977872 0.06907613 -0.012378607 0.04996488 -0.056156553 -0.055948243 -0.031327598 0.012101989
0.00042813655 -0.0030716592 0.011501313 -0.029047862 -0.051854834 0.031107929 -0.01767722 0.0098633645
0.0038705664 -0.05936869 0.035815474 0.008912071 -0.009544618 -0.017638588 0.0354331 -0.03700538
0.025295373 -0.016787596 0.046890862 -0.04096964 -0.0063007628 0.05924919 -0.012545267 0.033899166
-0.008259162 0.05710793 -0.015667051 0.023474915 -0.04705514 0.033345677 0.039449535 -0.024685036
-0.00024997353 -0.019479014 -0.007887513 0.041839164 0.033012424 0.042149473 0.012723823 0.008275755
-0.063689075 0.04921348 -0.016841654 0.006957372 0.06848957 0.062066935 -0.04597724 0.06979982
0.018267028 -0.030738248 -0.04283703 -0.07126127 0.017300388 -0.0076451716 0.029824393 0.058019392
-0.0014926575 -0.004074293 -0.03302448 0.05376907 0.04677133 -0.051356807 0.010188603 -0.015044878
0.018740466 -0.06197225 -0.06193795 0.06076984 -0.041609302 0.03857658 -0.050486766 -0.013337546
-0.051609993 0.05425359 -0.058993008 0.028039418 0.034058817 -0.031022748 -0.067546904 0.041897953
-0.03240465 0.029335845 0.040838845 -0.060896553 -0.026038771 0.036868766 0.011275203 -0.04606422
-0.03967984 0.042883694 -0.030543618 0.06947829 0.04554919 0.04576257 -0.03895314 0.04527991
-0.019232638 0.05251255 0.07205676 0.07163839 0.008361709 0.06426674 7.372686e-05 0.020572757
